[I][2025-01-30 08:24:36][GLOBAL]current model Wrapper_pf(
  (model): MetaFormer(
    (stem): Stem(
      (conv): Conv2d(3, 64, kernel_size=(7, 7), stride=(4, 4), padding=(2, 2))
      (norm): Identity()
    )
    (stages): Sequential(
      (0): MetaFormerStage(
        (downsample): Identity()
        (blocks): Sequential(
          (0): MetaFormerBlock(
            (norm1): GroupNorm1(1, 64, eps=1e-05, affine=True)
            (token_mixer): Pooling(
              (pool): AvgPool2d(kernel_size=3, stride=1, padding=1)
            )
            (drop_path1): Identity()
            (layer_scale1): Scale()
            (res_scale1): Identity()
            (norm2): GroupNorm1(1, 64, eps=1e-05, affine=True)
            (mlp): Mlp(
              (fc1): Conv2d(64, 256, kernel_size=(1, 1), stride=(1, 1))
              (act): GELU(approximate='none')
              (drop1): Dropout(p=0.0, inplace=False)
              (norm): Identity()
              (fc2): Conv2d(256, 64, kernel_size=(1, 1), stride=(1, 1))
              (drop2): Dropout(p=0.0, inplace=False)
            )
            (drop_path2): Identity()
            (layer_scale2): Scale()
            (res_scale2): Identity()
          )
          (1): MetaFormerBlock(
            (norm1): GroupNorm1(1, 64, eps=1e-05, affine=True)
            (token_mixer): Pooling(
              (pool): AvgPool2d(kernel_size=3, stride=1, padding=1)
            )
            (drop_path1): Identity()
            (layer_scale1): Scale()
            (res_scale1): Identity()
            (norm2): GroupNorm1(1, 64, eps=1e-05, affine=True)
            (mlp): Mlp(
              (fc1): Conv2d(64, 256, kernel_size=(1, 1), stride=(1, 1))
              (act): GELU(approximate='none')
              (drop1): Dropout(p=0.0, inplace=False)
              (norm): Identity()
              (fc2): Conv2d(256, 64, kernel_size=(1, 1), stride=(1, 1))
              (drop2): Dropout(p=0.0, inplace=False)
            )
            (drop_path2): Identity()
            (layer_scale2): Scale()
            (res_scale2): Identity()
          )
          (2): MetaFormerBlock(
            (norm1): GroupNorm1(1, 64, eps=1e-05, affine=True)
            (token_mixer): Pooling(
              (pool): AvgPool2d(kernel_size=3, stride=1, padding=1)
            )
            (drop_path1): Identity()
            (layer_scale1): Scale()
            (res_scale1): Identity()
            (norm2): GroupNorm1(1, 64, eps=1e-05, affine=True)
            (mlp): Mlp(
              (fc1): Conv2d(64, 256, kernel_size=(1, 1), stride=(1, 1))
              (act): GELU(approximate='none')
              (drop1): Dropout(p=0.0, inplace=False)
              (norm): Identity()
              (fc2): Conv2d(256, 64, kernel_size=(1, 1), stride=(1, 1))
              (drop2): Dropout(p=0.0, inplace=False)
            )
            (drop_path2): Identity()
            (layer_scale2): Scale()
            (res_scale2): Identity()
          )
          (3): MetaFormerBlock(
            (norm1): GroupNorm1(1, 64, eps=1e-05, affine=True)
            (token_mixer): Pooling(
              (pool): AvgPool2d(kernel_size=3, stride=1, padding=1)
            )
            (drop_path1): Identity()
            (layer_scale1): Scale()
            (res_scale1): Identity()
            (norm2): GroupNorm1(1, 64, eps=1e-05, affine=True)
            (mlp): Mlp(
              (fc1): Conv2d(64, 256, kernel_size=(1, 1), stride=(1, 1))
              (act): GELU(approximate='none')
              (drop1): Dropout(p=0.0, inplace=False)
              (norm): Identity()
              (fc2): Conv2d(256, 64, kernel_size=(1, 1), stride=(1, 1))
              (drop2): Dropout(p=0.0, inplace=False)
            )
            (drop_path2): Identity()
            (layer_scale2): Scale()
            (res_scale2): Identity()
          )
        )
      )
      (1): MetaFormerStage(
        (downsample): Downsampling(
          (norm): Identity()
          (conv): Conv2d(64, 128, kernel_size=(3, 3), stride=(2, 2), padding=(1, 1))
        )
        (blocks): Sequential(
          (0): MetaFormerBlock(
            (norm1): GroupNorm1(1, 128, eps=1e-05, affine=True)
            (token_mixer): Pooling(
              (pool): AvgPool2d(kernel_size=3, stride=1, padding=1)
            )
            (drop_path1): Identity()
            (layer_scale1): Scale()
            (res_scale1): Identity()
            (norm2): GroupNorm1(1, 128, eps=1e-05, affine=True)
            (mlp): Mlp(
              (fc1): Conv2d(128, 512, kernel_size=(1, 1), stride=(1, 1))
              (act): GELU(approximate='none')
              (drop1): Dropout(p=0.0, inplace=False)
              (norm): Identity()
              (fc2): Conv2d(512, 128, kernel_size=(1, 1), stride=(1, 1))
              (drop2): Dropout(p=0.0, inplace=False)
            )
            (drop_path2): Identity()
            (layer_scale2): Scale()
            (res_scale2): Identity()
          )
          (1): MetaFormerBlock(
            (norm1): GroupNorm1(1, 128, eps=1e-05, affine=True)
            (token_mixer): Pooling(
              (pool): AvgPool2d(kernel_size=3, stride=1, padding=1)
            )
            (drop_path1): Identity()
            (layer_scale1): Scale()
            (res_scale1): Identity()
            (norm2): GroupNorm1(1, 128, eps=1e-05, affine=True)
            (mlp): Mlp(
              (fc1): Conv2d(128, 512, kernel_size=(1, 1), stride=(1, 1))
              (act): GELU(approximate='none')
              (drop1): Dropout(p=0.0, inplace=False)
              (norm): Identity()
              (fc2): Conv2d(512, 128, kernel_size=(1, 1), stride=(1, 1))
              (drop2): Dropout(p=0.0, inplace=False)
            )
            (drop_path2): Identity()
            (layer_scale2): Scale()
            (res_scale2): Identity()
          )
          (2): MetaFormerBlock(
            (norm1): GroupNorm1(1, 128, eps=1e-05, affine=True)
            (token_mixer): Pooling(
              (pool): AvgPool2d(kernel_size=3, stride=1, padding=1)
            )
            (drop_path1): Identity()
            (layer_scale1): Scale()
            (res_scale1): Identity()
            (norm2): GroupNorm1(1, 128, eps=1e-05, affine=True)
            (mlp): Mlp(
              (fc1): Conv2d(128, 512, kernel_size=(1, 1), stride=(1, 1))
              (act): GELU(approximate='none')
              (drop1): Dropout(p=0.0, inplace=False)
              (norm): Identity()
              (fc2): Conv2d(512, 128, kernel_size=(1, 1), stride=(1, 1))
              (drop2): Dropout(p=0.0, inplace=False)
            )
            (drop_path2): Identity()
            (layer_scale2): Scale()
            (res_scale2): Identity()
          )
          (3): MetaFormerBlock(
            (norm1): GroupNorm1(1, 128, eps=1e-05, affine=True)
            (token_mixer): Pooling(
              (pool): AvgPool2d(kernel_size=3, stride=1, padding=1)
            )
            (drop_path1): Identity()
            (layer_scale1): Scale()
            (res_scale1): Identity()
            (norm2): GroupNorm1(1, 128, eps=1e-05, affine=True)
            (mlp): Mlp(
              (fc1): Conv2d(128, 512, kernel_size=(1, 1), stride=(1, 1))
              (act): GELU(approximate='none')
              (drop1): Dropout(p=0.0, inplace=False)
              (norm): Identity()
              (fc2): Conv2d(512, 128, kernel_size=(1, 1), stride=(1, 1))
              (drop2): Dropout(p=0.0, inplace=False)
            )
            (drop_path2): Identity()
            (layer_scale2): Scale()
            (res_scale2): Identity()
          )
        )
      )
      (2): MetaFormerStage(
        (downsample): Downsampling(
          (norm): Identity()
          (conv): Conv2d(128, 320, kernel_size=(3, 3), stride=(2, 2), padding=(1, 1))
        )
        (blocks): Sequential(
          (0): MetaFormerBlock(
            (norm1): GroupNorm1(1, 320, eps=1e-05, affine=True)
            (token_mixer): Pooling(
              (pool): AvgPool2d(kernel_size=3, stride=1, padding=1)
            )
            (drop_path1): Identity()
            (layer_scale1): Scale()
            (res_scale1): Identity()
            (norm2): GroupNorm1(1, 320, eps=1e-05, affine=True)
            (mlp): Mlp(
              (fc1): Conv2d(320, 1280, kernel_size=(1, 1), stride=(1, 1))
              (act): GELU(approximate='none')
              (drop1): Dropout(p=0.0, inplace=False)
              (norm): Identity()
              (fc2): Conv2d(1280, 320, kernel_size=(1, 1), stride=(1, 1))
              (drop2): Dropout(p=0.0, inplace=False)
            )
            (drop_path2): Identity()
            (layer_scale2): Scale()
            (res_scale2): Identity()
          )
          (1): MetaFormerBlock(
            (norm1): GroupNorm1(1, 320, eps=1e-05, affine=True)
            (token_mixer): Pooling(
              (pool): AvgPool2d(kernel_size=3, stride=1, padding=1)
            )
            (drop_path1): Identity()
            (layer_scale1): Scale()
            (res_scale1): Identity()
            (norm2): GroupNorm1(1, 320, eps=1e-05, affine=True)
            (mlp): Mlp(
              (fc1): Conv2d(320, 1280, kernel_size=(1, 1), stride=(1, 1))
              (act): GELU(approximate='none')
              (drop1): Dropout(p=0.0, inplace=False)
              (norm): Identity()
              (fc2): Conv2d(1280, 320, kernel_size=(1, 1), stride=(1, 1))
              (drop2): Dropout(p=0.0, inplace=False)
            )
            (drop_path2): Identity()
            (layer_scale2): Scale()
            (res_scale2): Identity()
          )
          (2): MetaFormerBlock(
            (norm1): GroupNorm1(1, 320, eps=1e-05, affine=True)
            (token_mixer): Pooling(
              (pool): AvgPool2d(kernel_size=3, stride=1, padding=1)
            )
            (drop_path1): Identity()
            (layer_scale1): Scale()
            (res_scale1): Identity()
            (norm2): GroupNorm1(1, 320, eps=1e-05, affine=True)
            (mlp): Mlp(
              (fc1): Conv2d(320, 1280, kernel_size=(1, 1), stride=(1, 1))
              (act): GELU(approximate='none')
              (drop1): Dropout(p=0.0, inplace=False)
              (norm): Identity()
              (fc2): Conv2d(1280, 320, kernel_size=(1, 1), stride=(1, 1))
              (drop2): Dropout(p=0.0, inplace=False)
            )
            (drop_path2): Identity()
            (layer_scale2): Scale()
            (res_scale2): Identity()
          )
          (3): MetaFormerBlock(
            (norm1): GroupNorm1(1, 320, eps=1e-05, affine=True)
            (token_mixer): Pooling(
              (pool): AvgPool2d(kernel_size=3, stride=1, padding=1)
            )
            (drop_path1): Identity()
            (layer_scale1): Scale()
            (res_scale1): Identity()
            (norm2): GroupNorm1(1, 320, eps=1e-05, affine=True)
            (mlp): Mlp(
              (fc1): Conv2d(320, 1280, kernel_size=(1, 1), stride=(1, 1))
              (act): GELU(approximate='none')
              (drop1): Dropout(p=0.0, inplace=False)
              (norm): Identity()
              (fc2): Conv2d(1280, 320, kernel_size=(1, 1), stride=(1, 1))
              (drop2): Dropout(p=0.0, inplace=False)
            )
            (drop_path2): Identity()
            (layer_scale2): Scale()
            (res_scale2): Identity()
          )
          (4): MetaFormerBlock(
            (norm1): GroupNorm1(1, 320, eps=1e-05, affine=True)
            (token_mixer): Pooling(
              (pool): AvgPool2d(kernel_size=3, stride=1, padding=1)
            )
            (drop_path1): Identity()
            (layer_scale1): Scale()
            (res_scale1): Identity()
            (norm2): GroupNorm1(1, 320, eps=1e-05, affine=True)
            (mlp): Mlp(
              (fc1): Conv2d(320, 1280, kernel_size=(1, 1), stride=(1, 1))
              (act): GELU(approximate='none')
              (drop1): Dropout(p=0.0, inplace=False)
              (norm): Identity()
              (fc2): Conv2d(1280, 320, kernel_size=(1, 1), stride=(1, 1))
              (drop2): Dropout(p=0.0, inplace=False)
            )
            (drop_path2): Identity()
            (layer_scale2): Scale()
            (res_scale2): Identity()
          )
          (5): MetaFormerBlock(
            (norm1): GroupNorm1(1, 320, eps=1e-05, affine=True)
            (token_mixer): Pooling(
              (pool): AvgPool2d(kernel_size=3, stride=1, padding=1)
            )
            (drop_path1): Identity()
            (layer_scale1): Scale()
            (res_scale1): Identity()
            (norm2): GroupNorm1(1, 320, eps=1e-05, affine=True)
            (mlp): Mlp(
              (fc1): Conv2d(320, 1280, kernel_size=(1, 1), stride=(1, 1))
              (act): GELU(approximate='none')
              (drop1): Dropout(p=0.0, inplace=False)
              (norm): Identity()
              (fc2): Conv2d(1280, 320, kernel_size=(1, 1), stride=(1, 1))
              (drop2): Dropout(p=0.0, inplace=False)
            )
            (drop_path2): Identity()
            (layer_scale2): Scale()
            (res_scale2): Identity()
          )
          (6): MetaFormerBlock(
            (norm1): GroupNorm1(1, 320, eps=1e-05, affine=True)
            (token_mixer): Pooling(
              (pool): AvgPool2d(kernel_size=3, stride=1, padding=1)
            )
            (drop_path1): Identity()
            (layer_scale1): Scale()
            (res_scale1): Identity()
            (norm2): GroupNorm1(1, 320, eps=1e-05, affine=True)
            (mlp): Mlp(
              (fc1): Conv2d(320, 1280, kernel_size=(1, 1), stride=(1, 1))
              (act): GELU(approximate='none')
              (drop1): Dropout(p=0.0, inplace=False)
              (norm): Identity()
              (fc2): Conv2d(1280, 320, kernel_size=(1, 1), stride=(1, 1))
              (drop2): Dropout(p=0.0, inplace=False)
            )
            (drop_path2): Identity()
            (layer_scale2): Scale()
            (res_scale2): Identity()
          )
          (7): MetaFormerBlock(
            (norm1): GroupNorm1(1, 320, eps=1e-05, affine=True)
            (token_mixer): Pooling(
              (pool): AvgPool2d(kernel_size=3, stride=1, padding=1)
            )
            (drop_path1): Identity()
            (layer_scale1): Scale()
            (res_scale1): Identity()
            (norm2): GroupNorm1(1, 320, eps=1e-05, affine=True)
            (mlp): Mlp(
              (fc1): Conv2d(320, 1280, kernel_size=(1, 1), stride=(1, 1))
              (act): GELU(approximate='none')
              (drop1): Dropout(p=0.0, inplace=False)
              (norm): Identity()
              (fc2): Conv2d(1280, 320, kernel_size=(1, 1), stride=(1, 1))
              (drop2): Dropout(p=0.0, inplace=False)
            )
            (drop_path2): Identity()
            (layer_scale2): Scale()
            (res_scale2): Identity()
          )
          (8): MetaFormerBlock(
            (norm1): GroupNorm1(1, 320, eps=1e-05, affine=True)
            (token_mixer): Pooling(
              (pool): AvgPool2d(kernel_size=3, stride=1, padding=1)
            )
            (drop_path1): Identity()
            (layer_scale1): Scale()
            (res_scale1): Identity()
            (norm2): GroupNorm1(1, 320, eps=1e-05, affine=True)
            (mlp): Mlp(
              (fc1): Conv2d(320, 1280, kernel_size=(1, 1), stride=(1, 1))
              (act): GELU(approximate='none')
              (drop1): Dropout(p=0.0, inplace=False)
              (norm): Identity()
              (fc2): Conv2d(1280, 320, kernel_size=(1, 1), stride=(1, 1))
              (drop2): Dropout(p=0.0, inplace=False)
            )
            (drop_path2): Identity()
            (layer_scale2): Scale()
            (res_scale2): Identity()
          )
          (9): MetaFormerBlock(
            (norm1): GroupNorm1(1, 320, eps=1e-05, affine=True)
            (token_mixer): Pooling(
              (pool): AvgPool2d(kernel_size=3, stride=1, padding=1)
            )
            (drop_path1): Identity()
            (layer_scale1): Scale()
            (res_scale1): Identity()
            (norm2): GroupNorm1(1, 320, eps=1e-05, affine=True)
            (mlp): Mlp(
              (fc1): Conv2d(320, 1280, kernel_size=(1, 1), stride=(1, 1))
              (act): GELU(approximate='none')
              (drop1): Dropout(p=0.0, inplace=False)
              (norm): Identity()
              (fc2): Conv2d(1280, 320, kernel_size=(1, 1), stride=(1, 1))
              (drop2): Dropout(p=0.0, inplace=False)
            )
            (drop_path2): Identity()
            (layer_scale2): Scale()
            (res_scale2): Identity()
          )
          (10): MetaFormerBlock(
            (norm1): GroupNorm1(1, 320, eps=1e-05, affine=True)
            (token_mixer): Pooling(
              (pool): AvgPool2d(kernel_size=3, stride=1, padding=1)
            )
            (drop_path1): Identity()
            (layer_scale1): Scale()
            (res_scale1): Identity()
            (norm2): GroupNorm1(1, 320, eps=1e-05, affine=True)
            (mlp): Mlp(
              (fc1): Conv2d(320, 1280, kernel_size=(1, 1), stride=(1, 1))
              (act): GELU(approximate='none')
              (drop1): Dropout(p=0.0, inplace=False)
              (norm): Identity()
              (fc2): Conv2d(1280, 320, kernel_size=(1, 1), stride=(1, 1))
              (drop2): Dropout(p=0.0, inplace=False)
            )
            (drop_path2): Identity()
            (layer_scale2): Scale()
            (res_scale2): Identity()
          )
          (11): MetaFormerBlock(
            (norm1): GroupNorm1(1, 320, eps=1e-05, affine=True)
            (token_mixer): Pooling(
              (pool): AvgPool2d(kernel_size=3, stride=1, padding=1)
            )
            (drop_path1): Identity()
            (layer_scale1): Scale()
            (res_scale1): Identity()
            (norm2): GroupNorm1(1, 320, eps=1e-05, affine=True)
            (mlp): Mlp(
              (fc1): Conv2d(320, 1280, kernel_size=(1, 1), stride=(1, 1))
              (act): GELU(approximate='none')
              (drop1): Dropout(p=0.0, inplace=False)
              (norm): Identity()
              (fc2): Conv2d(1280, 320, kernel_size=(1, 1), stride=(1, 1))
              (drop2): Dropout(p=0.0, inplace=False)
            )
            (drop_path2): Identity()
            (layer_scale2): Scale()
            (res_scale2): Identity()
          )
        )
      )
      (3): MetaFormerStage(
        (downsample): Downsampling(
          (norm): Identity()
          (conv): Conv2d(320, 512, kernel_size=(3, 3), stride=(2, 2), padding=(1, 1))
        )
        (blocks): Sequential(
          (0): MetaFormerBlock(
            (norm1): GroupNorm1(1, 512, eps=1e-05, affine=True)
            (token_mixer): Pooling(
              (pool): AvgPool2d(kernel_size=3, stride=1, padding=1)
            )
            (drop_path1): Identity()
            (layer_scale1): Scale()
            (res_scale1): Identity()
            (norm2): GroupNorm1(1, 512, eps=1e-05, affine=True)
            (mlp): Mlp(
              (fc1): Conv2d(512, 2048, kernel_size=(1, 1), stride=(1, 1))
              (act): GELU(approximate='none')
              (drop1): Dropout(p=0.0, inplace=False)
              (norm): Identity()
              (fc2): Conv2d(2048, 512, kernel_size=(1, 1), stride=(1, 1))
              (drop2): Dropout(p=0.0, inplace=False)
            )
            (drop_path2): Identity()
            (layer_scale2): Scale()
            (res_scale2): Identity()
          )
          (1): MetaFormerBlock(
            (norm1): GroupNorm1(1, 512, eps=1e-05, affine=True)
            (token_mixer): Pooling(
              (pool): AvgPool2d(kernel_size=3, stride=1, padding=1)
            )
            (drop_path1): Identity()
            (layer_scale1): Scale()
            (res_scale1): Identity()
            (norm2): GroupNorm1(1, 512, eps=1e-05, affine=True)
            (mlp): Mlp(
              (fc1): Conv2d(512, 2048, kernel_size=(1, 1), stride=(1, 1))
              (act): GELU(approximate='none')
              (drop1): Dropout(p=0.0, inplace=False)
              (norm): Identity()
              (fc2): Conv2d(2048, 512, kernel_size=(1, 1), stride=(1, 1))
              (drop2): Dropout(p=0.0, inplace=False)
            )
            (drop_path2): Identity()
            (layer_scale2): Scale()
            (res_scale2): Identity()
          )
          (2): MetaFormerBlock(
            (norm1): GroupNorm1(1, 512, eps=1e-05, affine=True)
            (token_mixer): Pooling(
              (pool): AvgPool2d(kernel_size=3, stride=1, padding=1)
            )
            (drop_path1): Identity()
            (layer_scale1): Scale()
            (res_scale1): Identity()
            (norm2): GroupNorm1(1, 512, eps=1e-05, affine=True)
            (mlp): Mlp(
              (fc1): Conv2d(512, 2048, kernel_size=(1, 1), stride=(1, 1))
              (act): GELU(approximate='none')
              (drop1): Dropout(p=0.0, inplace=False)
              (norm): Identity()
              (fc2): Conv2d(2048, 512, kernel_size=(1, 1), stride=(1, 1))
              (drop2): Dropout(p=0.0, inplace=False)
            )
            (drop_path2): Identity()
            (layer_scale2): Scale()
            (res_scale2): Identity()
          )
          (3): MetaFormerBlock(
            (norm1): GroupNorm1(1, 512, eps=1e-05, affine=True)
            (token_mixer): Pooling(
              (pool): AvgPool2d(kernel_size=3, stride=1, padding=1)
            )
            (drop_path1): Identity()
            (layer_scale1): Scale()
            (res_scale1): Identity()
            (norm2): GroupNorm1(1, 512, eps=1e-05, affine=True)
            (mlp): Mlp(
              (fc1): Conv2d(512, 2048, kernel_size=(1, 1), stride=(1, 1))
              (act): GELU(approximate='none')
              (drop1): Dropout(p=0.0, inplace=False)
              (norm): Identity()
              (fc2): Conv2d(2048, 512, kernel_size=(1, 1), stride=(1, 1))
              (drop2): Dropout(p=0.0, inplace=False)
            )
            (drop_path2): Identity()
            (layer_scale2): Scale()
            (res_scale2): Identity()
          )
        )
      )
    )
    (head): Sequential(
      (global_pool): SelectAdaptivePool2d(pool_type=avg, flatten=Identity())
      (norm): LayerNorm2d((512,), eps=1e-06, elementwise_affine=True)
      (flatten): Flatten(start_dim=1, end_dim=-1)
      (drop): Identity()
      (fc): Linear(in_features=512, out_features=1000, bias=True)
    )
  )
)
[I][2025-01-30 08:24:36][GLOBAL]load time 3.083099603652954 s
[I][2025-01-30 08:24:41][GLOBAL]epoch  0 valid mean acc 0.663200
[I][2025-01-30 08:24:43][GLOBAL]epoch  1 error: 5.839873 acc 0.003125 | time cost - dataload: 0.03 forward: 0.03 backward: 0.00
[I][2025-01-30 08:24:44][GLOBAL]epoch  2 error: 5.699885 acc 0.015625 | time cost - dataload: 0.02 forward: 0.01 backward: 0.00
…
[I][2025-01-30 08:30:59][GLOBAL]epoch 248 error: 0.221524 acc 0.935938 | time cost - dataload: 0.02 forward: 0.01 backward: 0.00
[I][2025-01-30 08:31:00][GLOBAL]epoch 249 error: 0.243023 acc 0.937500 | time cost - dataload: 0.02 forward: 0.01 backward: 0.00
[I][2025-01-30 08:31:01][GLOBAL]epoch 250 error: 0.222395 acc 0.929688 | time cost - dataload: 0.03 forward: 0.01 backward: 0.00
[I][2025-01-30 08:31:03][GLOBAL]epoch 250 valid mean acc 0.663200
[I][2025-01-30 09:16:29][GLOBAL]current model Wrapper(
  (model): ResNetWrap(
    (core): Sequential(
      (0): Sequential(
        (0): Sequential(
          (0): Conv2d(3, 32, kernel_size=(3, 3), stride=(2, 2), padding=(1, 1), bias=False)
          (1): BatchNorm2d(32, eps=1e-05, momentum=0.1, affine=True, track_running_stats=True)
          (2): ReLU(inplace=True)
          (3): Conv2d(32, 32, kernel_size=(3, 3), stride=(1, 1), padding=(1, 1), bias=False)
          (4): BatchNorm2d(32, eps=1e-05, momentum=0.1, affine=True, track_running_stats=True)
          (5): ReLU(inplace=True)
          (6): Conv2d(32, 64, kernel_size=(3, 3), stride=(1, 1), padding=(1, 1), bias=False)
        )
        (1): BatchNorm2d(64, eps=1e-05, momentum=0.1, affine=True, track_running_stats=True)
        (2): ReLU(inplace=True)
        (3): MaxPool2d(kernel_size=3, stride=2, padding=1, dilation=1, ceil_mode=False)
      )
      (1): Sequential(
        (0): Bottleneck(
          (conv1): Conv2d(64, 64, kernel_size=(1, 1), stride=(1, 1), bias=False)
          (bn1): BatchNorm2d(64, eps=1e-05, momentum=0.1, affine=True, track_running_stats=True)
          (act1): ReLU(inplace=True)
          (conv2): Conv2d(64, 64, kernel_size=(3, 3), stride=(1, 1), padding=(1, 1), bias=False)
          (bn2): BatchNorm2d(64, eps=1e-05, momentum=0.1, affine=True, track_running_stats=True)
          (drop_block): Identity()
          (act2): ReLU(inplace=True)
          (aa): Identity()
          (conv3): Conv2d(64, 256, kernel_size=(1, 1), stride=(1, 1), bias=False)
          (bn3): BatchNorm2d(256, eps=1e-05, momentum=0.1, affine=True, track_running_stats=True)
          (se): SEModule(
            (fc1): Conv2d(256, 16, kernel_size=(1, 1), stride=(1, 1))
            (bn): Identity()
            (act): ReLU(inplace=True)
            (fc2): Conv2d(16, 256, kernel_size=(1, 1), stride=(1, 1))
            (gate): Sigmoid()
          )
          (act3): ReLU(inplace=True)
          (downsample): Sequential(
            (0): Identity()
            (1): Conv2d(64, 256, kernel_size=(1, 1), stride=(1, 1), bias=False)
            (2): BatchNorm2d(256, eps=1e-05, momentum=0.1, affine=True, track_running_stats=True)
          )
        )
        (1): Bottleneck(
          (conv1): Conv2d(256, 64, kernel_size=(1, 1), stride=(1, 1), bias=False)
          (bn1): BatchNorm2d(64, eps=1e-05, momentum=0.1, affine=True, track_running_stats=True)
          (act1): ReLU(inplace=True)
          (conv2): Conv2d(64, 64, kernel_size=(3, 3), stride=(1, 1), padding=(1, 1), bias=False)
          (bn2): BatchNorm2d(64, eps=1e-05, momentum=0.1, affine=True, track_running_stats=True)
          (drop_block): Identity()
          (act2): ReLU(inplace=True)
          (aa): Identity()
          (conv3): Conv2d(64, 256, kernel_size=(1, 1), stride=(1, 1), bias=False)
          (bn3): BatchNorm2d(256, eps=1e-05, momentum=0.1, affine=True, track_running_stats=True)
          (se): SEModule(
            (fc1): Conv2d(256, 16, kernel_size=(1, 1), stride=(1, 1))
            (bn): Identity()
            (act): ReLU(inplace=True)
            (fc2): Conv2d(16, 256, kernel_size=(1, 1), stride=(1, 1))
            (gate): Sigmoid()
          )
          (act3): ReLU(inplace=True)
        )
        (2): Bottleneck(
          (conv1): Conv2d(256, 64, kernel_size=(1, 1), stride=(1, 1), bias=False)
          (bn1): BatchNorm2d(64, eps=1e-05, momentum=0.1, affine=True, track_running_stats=True)
          (act1): ReLU(inplace=True)
          (conv2): Conv2d(64, 64, kernel_size=(3, 3), stride=(1, 1), padding=(1, 1), bias=False)
          (bn2): BatchNorm2d(64, eps=1e-05, momentum=0.1, affine=True, track_running_stats=True)
          (drop_block): Identity()
          (act2): ReLU(inplace=True)
          (aa): Identity()
          (conv3): Conv2d(64, 256, kernel_size=(1, 1), stride=(1, 1), bias=False)
          (bn3): BatchNorm2d(256, eps=1e-05, momentum=0.1, affine=True, track_running_stats=True)
          (se): SEModule(
            (fc1): Conv2d(256, 16, kernel_size=(1, 1), stride=(1, 1))
            (bn): Identity()
            (act): ReLU(inplace=True)
            (fc2): Conv2d(16, 256, kernel_size=(1, 1), stride=(1, 1))
            (gate): Sigmoid()
          )
          (act3): ReLU(inplace=True)
        )
      )
      (2): Sequential(
        (0): Bottleneck(
          (conv1): Conv2d(256, 128, kernel_size=(1, 1), stride=(1, 1), bias=False)
          (bn1): BatchNorm2d(128, eps=1e-05, momentum=0.1, affine=True, track_running_stats=True)
          (act1): ReLU(inplace=True)
          (conv2): Conv2d(128, 128, kernel_size=(3, 3), stride=(2, 2), padding=(1, 1), bias=False)
          (bn2): BatchNorm2d(128, eps=1e-05, momentum=0.1, affine=True, track_running_stats=True)
          (drop_block): Identity()
          (act2): ReLU(inplace=True)
          (aa): Identity()
          (conv3): Conv2d(128, 512, kernel_size=(1, 1), stride=(1, 1), bias=False)
          (bn3): BatchNorm2d(512, eps=1e-05, momentum=0.1, affine=True, track_running_stats=True)
          (se): SEModule(
            (fc1): Conv2d(512, 32, kernel_size=(1, 1), stride=(1, 1))
            (bn): Identity()
            (act): ReLU(inplace=True)
            (fc2): Conv2d(32, 512, kernel_size=(1, 1), stride=(1, 1))
            (gate): Sigmoid()
          )
          (act3): ReLU(inplace=True)
          (downsample): Sequential(
            (0): AvgPool2d(kernel_size=2, stride=2, padding=0)
            (1): Conv2d(256, 512, kernel_size=(1, 1), stride=(1, 1), bias=False)
            (2): BatchNorm2d(512, eps=1e-05, momentum=0.1, affine=True, track_running_stats=True)
          )
        )
        (1): Bottleneck(
          (conv1): Conv2d(512, 128, kernel_size=(1, 1), stride=(1, 1), bias=False)
          (bn1): BatchNorm2d(128, eps=1e-05, momentum=0.1, affine=True, track_running_stats=True)
          (act1): ReLU(inplace=True)
          (conv2): Conv2d(128, 128, kernel_size=(3, 3), stride=(1, 1), padding=(1, 1), bias=False)
          (bn2): BatchNorm2d(128, eps=1e-05, momentum=0.1, affine=True, track_running_stats=True)
          (drop_block): Identity()
          (act2): ReLU(inplace=True)
          (aa): Identity()
          (conv3): Conv2d(128, 512, kernel_size=(1, 1), stride=(1, 1), bias=False)
          (bn3): BatchNorm2d(512, eps=1e-05, momentum=0.1, affine=True, track_running_stats=True)
          (se): SEModule(
            (fc1): Conv2d(512, 32, kernel_size=(1, 1), stride=(1, 1))
            (bn): Identity()
            (act): ReLU(inplace=True)
            (fc2): Conv2d(32, 512, kernel_size=(1, 1), stride=(1, 1))
            (gate): Sigmoid()
          )
          (act3): ReLU(inplace=True)
        )
        (2): Bottleneck(
          (conv1): Conv2d(512, 128, kernel_size=(1, 1), stride=(1, 1), bias=False)
          (bn1): BatchNorm2d(128, eps=1e-05, momentum=0.1, affine=True, track_running_stats=True)
          (act1): ReLU(inplace=True)
          (conv2): Conv2d(128, 128, kernel_size=(3, 3), stride=(1, 1), padding=(1, 1), bias=False)
          (bn2): BatchNorm2d(128, eps=1e-05, momentum=0.1, affine=True, track_running_stats=True)
          (drop_block): Identity()
          (act2): ReLU(inplace=True)
          (aa): Identity()
          (conv3): Conv2d(128, 512, kernel_size=(1, 1), stride=(1, 1), bias=False)
          (bn3): BatchNorm2d(512, eps=1e-05, momentum=0.1, affine=True, track_running_stats=True)
          (se): SEModule(
            (fc1): Conv2d(512, 32, kernel_size=(1, 1), stride=(1, 1))
            (bn): Identity()
            (act): ReLU(inplace=True)
            (fc2): Conv2d(32, 512, kernel_size=(1, 1), stride=(1, 1))
            (gate): Sigmoid()
          )
          (act3): ReLU(inplace=True)
        )
        (3): Bottleneck(
          (conv1): Conv2d(512, 128, kernel_size=(1, 1), stride=(1, 1), bias=False)
          (bn1): BatchNorm2d(128, eps=1e-05, momentum=0.1, affine=True, track_running_stats=True)
          (act1): ReLU(inplace=True)
          (conv2): Conv2d(128, 128, kernel_size=(3, 3), stride=(1, 1), padding=(1, 1), bias=False)
          (bn2): BatchNorm2d(128, eps=1e-05, momentum=0.1, affine=True, track_running_stats=True)
          (drop_block): Identity()
          (act2): ReLU(inplace=True)
          (aa): Identity()
          (conv3): Conv2d(128, 512, kernel_size=(1, 1), stride=(1, 1), bias=False)
          (bn3): BatchNorm2d(512, eps=1e-05, momentum=0.1, affine=True, track_running_stats=True)
          (se): SEModule(
            (fc1): Conv2d(512, 32, kernel_size=(1, 1), stride=(1, 1))
            (bn): Identity()
            (act): ReLU(inplace=True)
            (fc2): Conv2d(32, 512, kernel_size=(1, 1), stride=(1, 1))
            (gate): Sigmoid()
          )
          (act3): ReLU(inplace=True)
        )
        (4): Bottleneck(
          (conv1): Conv2d(512, 128, kernel_size=(1, 1), stride=(1, 1), bias=False)
          (bn1): BatchNorm2d(128, eps=1e-05, momentum=0.1, affine=True, track_running_stats=True)
          (act1): ReLU(inplace=True)
          (conv2): Conv2d(128, 128, kernel_size=(3, 3), stride=(1, 1), padding=(1, 1), bias=False)
          (bn2): BatchNorm2d(128, eps=1e-05, momentum=0.1, affine=True, track_running_stats=True)
          (drop_block): Identity()
          (act2): ReLU(inplace=True)
          (aa): Identity()
          (conv3): Conv2d(128, 512, kernel_size=(1, 1), stride=(1, 1), bias=False)
          (bn3): BatchNorm2d(512, eps=1e-05, momentum=0.1, affine=True, track_running_stats=True)
          (se): SEModule(
            (fc1): Conv2d(512, 32, kernel_size=(1, 1), stride=(1, 1))
            (bn): Identity()
            (act): ReLU(inplace=True)
            (fc2): Conv2d(32, 512, kernel_size=(1, 1), stride=(1, 1))
            (gate): Sigmoid()
          )
          (act3): ReLU(inplace=True)
        )
        (5): Bottleneck(
          (conv1): Conv2d(512, 128, kernel_size=(1, 1), stride=(1, 1), bias=False)
          (bn1): BatchNorm2d(128, eps=1e-05, momentum=0.1, affine=True, track_running_stats=True)
          (act1): ReLU(inplace=True)
          (conv2): Conv2d(128, 128, kernel_size=(3, 3), stride=(1, 1), padding=(1, 1), bias=False)
          (bn2): BatchNorm2d(128, eps=1e-05, momentum=0.1, affine=True, track_running_stats=True)
          (drop_block): Identity()
          (act2): ReLU(inplace=True)
          (aa): Identity()
          (conv3): Conv2d(128, 512, kernel_size=(1, 1), stride=(1, 1), bias=False)
          (bn3): BatchNorm2d(512, eps=1e-05, momentum=0.1, affine=True, track_running_stats=True)
          (se): SEModule(
            (fc1): Conv2d(512, 32, kernel_size=(1, 1), stride=(1, 1))
            (bn): Identity()
            (act): ReLU(inplace=True)
            (fc2): Conv2d(32, 512, kernel_size=(1, 1), stride=(1, 1))
            (gate): Sigmoid()
          )
          (act3): ReLU(inplace=True)
        )
        (6): Bottleneck(
          (conv1): Conv2d(512, 128, kernel_size=(1, 1), stride=(1, 1), bias=False)
          (bn1): BatchNorm2d(128, eps=1e-05, momentum=0.1, affine=True, track_running_stats=True)
          (act1): ReLU(inplace=True)
          (conv2): Conv2d(128, 128, kernel_size=(3, 3), stride=(1, 1), padding=(1, 1), bias=False)
          (bn2): BatchNorm2d(128, eps=1e-05, momentum=0.1, affine=True, track_running_stats=True)
          (drop_block): Identity()
          (act2): ReLU(inplace=True)
          (aa): Identity()
          (conv3): Conv2d(128, 512, kernel_size=(1, 1), stride=(1, 1), bias=False)
          (bn3): BatchNorm2d(512, eps=1e-05, momentum=0.1, affine=True, track_running_stats=True)
          (se): SEModule(
            (fc1): Conv2d(512, 32, kernel_size=(1, 1), stride=(1, 1))
            (bn): Identity()
            (act): ReLU(inplace=True)
            (fc2): Conv2d(32, 512, kernel_size=(1, 1), stride=(1, 1))
            (gate): Sigmoid()
          )
          (act3): ReLU(inplace=True)
        )
        (7): Bottleneck(
          (conv1): Conv2d(512, 128, kernel_size=(1, 1), stride=(1, 1), bias=False)
          (bn1): BatchNorm2d(128, eps=1e-05, momentum=0.1, affine=True, track_running_stats=True)
          (act1): ReLU(inplace=True)
          (conv2): Conv2d(128, 128, kernel_size=(3, 3), stride=(1, 1), padding=(1, 1), bias=False)
          (bn2): BatchNorm2d(128, eps=1e-05, momentum=0.1, affine=True, track_running_stats=True)
          (drop_block): Identity()
          (act2): ReLU(inplace=True)
          (aa): Identity()
          (conv3): Conv2d(128, 512, kernel_size=(1, 1), stride=(1, 1), bias=False)
          (bn3): BatchNorm2d(512, eps=1e-05, momentum=0.1, affine=True, track_running_stats=True)
          (se): SEModule(
            (fc1): Conv2d(512, 32, kernel_size=(1, 1), stride=(1, 1))
            (bn): Identity()
            (act): ReLU(inplace=True)
            (fc2): Conv2d(32, 512, kernel_size=(1, 1), stride=(1, 1))
            (gate): Sigmoid()
          )
          (act3): ReLU(inplace=True)
        )
      )
      (3): Sequential(
        (0): Bottleneck(
          (conv1): Conv2d(512, 256, kernel_size=(1, 1), stride=(1, 1), bias=False)
          (bn1): BatchNorm2d(256, eps=1e-05, momentum=0.1, affine=True, track_running_stats=True)
          (act1): ReLU(inplace=True)
          (conv2): Conv2d(256, 256, kernel_size=(3, 3), stride=(2, 2), padding=(1, 1), bias=False)
          (bn2): BatchNorm2d(256, eps=1e-05, momentum=0.1, affine=True, track_running_stats=True)
          (drop_block): Identity()
          (act2): ReLU(inplace=True)
          (aa): Identity()
          (conv3): Conv2d(256, 1024, kernel_size=(1, 1), stride=(1, 1), bias=False)
          (bn3): BatchNorm2d(1024, eps=1e-05, momentum=0.1, affine=True, track_running_stats=True)
          (se): SEModule(
            (fc1): Conv2d(1024, 64, kernel_size=(1, 1), stride=(1, 1))
            (bn): Identity()
            (act): ReLU(inplace=True)
            (fc2): Conv2d(64, 1024, kernel_size=(1, 1), stride=(1, 1))
            (gate): Sigmoid()
          )
          (act3): ReLU(inplace=True)
          (downsample): Sequential(
            (0): AvgPool2d(kernel_size=2, stride=2, padding=0)
            (1): Conv2d(512, 1024, kernel_size=(1, 1), stride=(1, 1), bias=False)
            (2): BatchNorm2d(1024, eps=1e-05, momentum=0.1, affine=True, track_running_stats=True)
          )
        )
        (1): Bottleneck(
          (conv1): Conv2d(1024, 256, kernel_size=(1, 1), stride=(1, 1), bias=False)
          (bn1): BatchNorm2d(256, eps=1e-05, momentum=0.1, affine=True, track_running_stats=True)
          (act1): ReLU(inplace=True)
          (conv2): Conv2d(256, 256, kernel_size=(3, 3), stride=(1, 1), padding=(1, 1), bias=False)
          (bn2): BatchNorm2d(256, eps=1e-05, momentum=0.1, affine=True, track_running_stats=True)
          (drop_block): Identity()
          (act2): ReLU(inplace=True)
          (aa): Identity()
          (conv3): Conv2d(256, 1024, kernel_size=(1, 1), stride=(1, 1), bias=False)
          (bn3): BatchNorm2d(1024, eps=1e-05, momentum=0.1, affine=True, track_running_stats=True)
          (se): SEModule(
            (fc1): Conv2d(1024, 64, kernel_size=(1, 1), stride=(1, 1))
            (bn): Identity()
            (act): ReLU(inplace=True)
            (fc2): Conv2d(64, 1024, kernel_size=(1, 1), stride=(1, 1))
            (gate): Sigmoid()
          )
          (act3): ReLU(inplace=True)
        )
        (2): Bottleneck(
          (conv1): Conv2d(1024, 256, kernel_size=(1, 1), stride=(1, 1), bias=False)
          (bn1): BatchNorm2d(256, eps=1e-05, momentum=0.1, affine=True, track_running_stats=True)
          (act1): ReLU(inplace=True)
          (conv2): Conv2d(256, 256, kernel_size=(3, 3), stride=(1, 1), padding=(1, 1), bias=False)
          (bn2): BatchNorm2d(256, eps=1e-05, momentum=0.1, affine=True, track_running_stats=True)
          (drop_block): Identity()
          (act2): ReLU(inplace=True)
          (aa): Identity()
          (conv3): Conv2d(256, 1024, kernel_size=(1, 1), stride=(1, 1), bias=False)
          (bn3): BatchNorm2d(1024, eps=1e-05, momentum=0.1, affine=True, track_running_stats=True)
          (se): SEModule(
            (fc1): Conv2d(1024, 64, kernel_size=(1, 1), stride=(1, 1))
            (bn): Identity()
            (act): ReLU(inplace=True)
            (fc2): Conv2d(64, 1024, kernel_size=(1, 1), stride=(1, 1))
            (gate): Sigmoid()
          )
          (act3): ReLU(inplace=True)
        )
        (3): Bottleneck(
          (conv1): Conv2d(1024, 256, kernel_size=(1, 1), stride=(1, 1), bias=False)
          (bn1): BatchNorm2d(256, eps=1e-05, momentum=0.1, affine=True, track_running_stats=True)
          (act1): ReLU(inplace=True)
          (conv2): Conv2d(256, 256, kernel_size=(3, 3), stride=(1, 1), padding=(1, 1), bias=False)
          (bn2): BatchNorm2d(256, eps=1e-05, momentum=0.1, affine=True, track_running_stats=True)
          (drop_block): Identity()
          (act2): ReLU(inplace=True)
          (aa): Identity()
          (conv3): Conv2d(256, 1024, kernel_size=(1, 1), stride=(1, 1), bias=False)
          (bn3): BatchNorm2d(1024, eps=1e-05, momentum=0.1, affine=True, track_running_stats=True)
          (se): SEModule(
            (fc1): Conv2d(1024, 64, kernel_size=(1, 1), stride=(1, 1))
            (bn): Identity()
            (act): ReLU(inplace=True)
            (fc2): Conv2d(64, 1024, kernel_size=(1, 1), stride=(1, 1))
            (gate): Sigmoid()
          )
          (act3): ReLU(inplace=True)
        )
        (4): Bottleneck(
          (conv1): Conv2d(1024, 256, kernel_size=(1, 1), stride=(1, 1), bias=False)
          (bn1): BatchNorm2d(256, eps=1e-05, momentum=0.1, affine=True, track_running_stats=True)
          (act1): ReLU(inplace=True)
          (conv2): Conv2d(256, 256, kernel_size=(3, 3), stride=(1, 1), padding=(1, 1), bias=False)
          (bn2): BatchNorm2d(256, eps=1e-05, momentum=0.1, affine=True, track_running_stats=True)
          (drop_block): Identity()
          (act2): ReLU(inplace=True)
          (aa): Identity()
          (conv3): Conv2d(256, 1024, kernel_size=(1, 1), stride=(1, 1), bias=False)
          (bn3): BatchNorm2d(1024, eps=1e-05, momentum=0.1, affine=True, track_running_stats=True)
          (se): SEModule(
            (fc1): Conv2d(1024, 64, kernel_size=(1, 1), stride=(1, 1))
            (bn): Identity()
            (act): ReLU(inplace=True)
            (fc2): Conv2d(64, 1024, kernel_size=(1, 1), stride=(1, 1))
            (gate): Sigmoid()
          )
          (act3): ReLU(inplace=True)
        )
        (5): Bottleneck(
          (conv1): Conv2d(1024, 256, kernel_size=(1, 1), stride=(1, 1), bias=False)
          (bn1): BatchNorm2d(256, eps=1e-05, momentum=0.1, affine=True, track_running_stats=True)
          (act1): ReLU(inplace=True)
          (conv2): Conv2d(256, 256, kernel_size=(3, 3), stride=(1, 1), padding=(1, 1), bias=False)
          (bn2): BatchNorm2d(256, eps=1e-05, momentum=0.1, affine=True, track_running_stats=True)
          (drop_block): Identity()
          (act2): ReLU(inplace=True)
          (aa): Identity()
          (conv3): Conv2d(256, 1024, kernel_size=(1, 1), stride=(1, 1), bias=False)
          (bn3): BatchNorm2d(1024, eps=1e-05, momentum=0.1, affine=True, track_running_stats=True)
          (se): SEModule(
            (fc1): Conv2d(1024, 64, kernel_size=(1, 1), stride=(1, 1))
            (bn): Identity()
            (act): ReLU(inplace=True)
            (fc2): Conv2d(64, 1024, kernel_size=(1, 1), stride=(1, 1))
            (gate): Sigmoid()
          )
          (act3): ReLU(inplace=True)
        )
        (6): Bottleneck(
          (conv1): Conv2d(1024, 256, kernel_size=(1, 1), stride=(1, 1), bias=False)
          (bn1): BatchNorm2d(256, eps=1e-05, momentum=0.1, affine=True, track_running_stats=True)
          (act1): ReLU(inplace=True)
          (conv2): Conv2d(256, 256, kernel_size=(3, 3), stride=(1, 1), padding=(1, 1), bias=False)
          (bn2): BatchNorm2d(256, eps=1e-05, momentum=0.1, affine=True, track_running_stats=True)
          (drop_block): Identity()
          (act2): ReLU(inplace=True)
          (aa): Identity()
          (conv3): Conv2d(256, 1024, kernel_size=(1, 1), stride=(1, 1), bias=False)
          (bn3): BatchNorm2d(1024, eps=1e-05, momentum=0.1, affine=True, track_running_stats=True)
          (se): SEModule(
            (fc1): Conv2d(1024, 64, kernel_size=(1, 1), stride=(1, 1))
            (bn): Identity()
            (act): ReLU(inplace=True)
            (fc2): Conv2d(64, 1024, kernel_size=(1, 1), stride=(1, 1))
            (gate): Sigmoid()
          )
          (act3): ReLU(inplace=True)
        )
        (7): Bottleneck(
          (conv1): Conv2d(1024, 256, kernel_size=(1, 1), stride=(1, 1), bias=False)
          (bn1): BatchNorm2d(256, eps=1e-05, momentum=0.1, affine=True, track_running_stats=True)
          (act1): ReLU(inplace=True)
          (conv2): Conv2d(256, 256, kernel_size=(3, 3), stride=(1, 1), padding=(1, 1), bias=False)
          (bn2): BatchNorm2d(256, eps=1e-05, momentum=0.1, affine=True, track_running_stats=True)
          (drop_block): Identity()
          (act2): ReLU(inplace=True)
          (aa): Identity()
          (conv3): Conv2d(256, 1024, kernel_size=(1, 1), stride=(1, 1), bias=False)
          (bn3): BatchNorm2d(1024, eps=1e-05, momentum=0.1, affine=True, track_running_stats=True)
          (se): SEModule(
            (fc1): Conv2d(1024, 64, kernel_size=(1, 1), stride=(1, 1))
            (bn): Identity()
            (act): ReLU(inplace=True)
            (fc2): Conv2d(64, 1024, kernel_size=(1, 1), stride=(1, 1))
            (gate): Sigmoid()
          )
          (act3): ReLU(inplace=True)
        )
        (8): Bottleneck(
          (conv1): Conv2d(1024, 256, kernel_size=(1, 1), stride=(1, 1), bias=False)
          (bn1): BatchNorm2d(256, eps=1e-05, momentum=0.1, affine=True, track_running_stats=True)
          (act1): ReLU(inplace=True)
          (conv2): Conv2d(256, 256, kernel_size=(3, 3), stride=(1, 1), padding=(1, 1), bias=False)
          (bn2): BatchNorm2d(256, eps=1e-05, momentum=0.1, affine=True, track_running_stats=True)
          (drop_block): Identity()
          (act2): ReLU(inplace=True)
          (aa): Identity()
          (conv3): Conv2d(256, 1024, kernel_size=(1, 1), stride=(1, 1), bias=False)
          (bn3): BatchNorm2d(1024, eps=1e-05, momentum=0.1, affine=True, track_running_stats=True)
          (se): SEModule(
            (fc1): Conv2d(1024, 64, kernel_size=(1, 1), stride=(1, 1))
            (bn): Identity()
            (act): ReLU(inplace=True)
            (fc2): Conv2d(64, 1024, kernel_size=(1, 1), stride=(1, 1))
            (gate): Sigmoid()
          )
          (act3): ReLU(inplace=True)
        )
        (9): Bottleneck(
          (conv1): Conv2d(1024, 256, kernel_size=(1, 1), stride=(1, 1), bias=False)
          (bn1): BatchNorm2d(256, eps=1e-05, momentum=0.1, affine=True, track_running_stats=True)
          (act1): ReLU(inplace=True)
          (conv2): Conv2d(256, 256, kernel_size=(3, 3), stride=(1, 1), padding=(1, 1), bias=False)
          (bn2): BatchNorm2d(256, eps=1e-05, momentum=0.1, affine=True, track_running_stats=True)
          (drop_block): Identity()
          (act2): ReLU(inplace=True)
          (aa): Identity()
          (conv3): Conv2d(256, 1024, kernel_size=(1, 1), stride=(1, 1), bias=False)
          (bn3): BatchNorm2d(1024, eps=1e-05, momentum=0.1, affine=True, track_running_stats=True)
          (se): SEModule(
            (fc1): Conv2d(1024, 64, kernel_size=(1, 1), stride=(1, 1))
            (bn): Identity()
            (act): ReLU(inplace=True)
            (fc2): Conv2d(64, 1024, kernel_size=(1, 1), stride=(1, 1))
            (gate): Sigmoid()
          )
          (act3): ReLU(inplace=True)
        )
        (10): Bottleneck(
          (conv1): Conv2d(1024, 256, kernel_size=(1, 1), stride=(1, 1), bias=False)
          (bn1): BatchNorm2d(256, eps=1e-05, momentum=0.1, affine=True, track_running_stats=True)
          (act1): ReLU(inplace=True)
          (conv2): Conv2d(256, 256, kernel_size=(3, 3), stride=(1, 1), padding=(1, 1), bias=False)
          (bn2): BatchNorm2d(256, eps=1e-05, momentum=0.1, affine=True, track_running_stats=True)
          (drop_block): Identity()
          (act2): ReLU(inplace=True)
          (aa): Identity()
          (conv3): Conv2d(256, 1024, kernel_size=(1, 1), stride=(1, 1), bias=False)
          (bn3): BatchNorm2d(1024, eps=1e-05, momentum=0.1, affine=True, track_running_stats=True)
          (se): SEModule(
            (fc1): Conv2d(1024, 64, kernel_size=(1, 1), stride=(1, 1))
            (bn): Identity()
            (act): ReLU(inplace=True)
            (fc2): Conv2d(64, 1024, kernel_size=(1, 1), stride=(1, 1))
            (gate): Sigmoid()
          )
          (act3): ReLU(inplace=True)
        )
        (11): Bottleneck(
          (conv1): Conv2d(1024, 256, kernel_size=(1, 1), stride=(1, 1), bias=False)
          (bn1): BatchNorm2d(256, eps=1e-05, momentum=0.1, affine=True, track_running_stats=True)
          (act1): ReLU(inplace=True)
          (conv2): Conv2d(256, 256, kernel_size=(3, 3), stride=(1, 1), padding=(1, 1), bias=False)
          (bn2): BatchNorm2d(256, eps=1e-05, momentum=0.1, affine=True, track_running_stats=True)
          (drop_block): Identity()
          (act2): ReLU(inplace=True)
          (aa): Identity()
          (conv3): Conv2d(256, 1024, kernel_size=(1, 1), stride=(1, 1), bias=False)
          (bn3): BatchNorm2d(1024, eps=1e-05, momentum=0.1, affine=True, track_running_stats=True)
          (se): SEModule(
            (fc1): Conv2d(1024, 64, kernel_size=(1, 1), stride=(1, 1))
            (bn): Identity()
            (act): ReLU(inplace=True)
            (fc2): Conv2d(64, 1024, kernel_size=(1, 1), stride=(1, 1))
            (gate): Sigmoid()
          )
          (act3): ReLU(inplace=True)
        )
        (12): Bottleneck(
          (conv1): Conv2d(1024, 256, kernel_size=(1, 1), stride=(1, 1), bias=False)
          (bn1): BatchNorm2d(256, eps=1e-05, momentum=0.1, affine=True, track_running_stats=True)
          (act1): ReLU(inplace=True)
          (conv2): Conv2d(256, 256, kernel_size=(3, 3), stride=(1, 1), padding=(1, 1), bias=False)
          (bn2): BatchNorm2d(256, eps=1e-05, momentum=0.1, affine=True, track_running_stats=True)
          (drop_block): Identity()
          (act2): ReLU(inplace=True)
          (aa): Identity()
          (conv3): Conv2d(256, 1024, kernel_size=(1, 1), stride=(1, 1), bias=False)
          (bn3): BatchNorm2d(1024, eps=1e-05, momentum=0.1, affine=True, track_running_stats=True)
          (se): SEModule(
            (fc1): Conv2d(1024, 64, kernel_size=(1, 1), stride=(1, 1))
            (bn): Identity()
            (act): ReLU(inplace=True)
            (fc2): Conv2d(64, 1024, kernel_size=(1, 1), stride=(1, 1))
            (gate): Sigmoid()
          )
          (act3): ReLU(inplace=True)
        )
        (13): Bottleneck(
          (conv1): Conv2d(1024, 256, kernel_size=(1, 1), stride=(1, 1), bias=False)
          (bn1): BatchNorm2d(256, eps=1e-05, momentum=0.1, affine=True, track_running_stats=True)
          (act1): ReLU(inplace=True)
          (conv2): Conv2d(256, 256, kernel_size=(3, 3), stride=(1, 1), padding=(1, 1), bias=False)
          (bn2): BatchNorm2d(256, eps=1e-05, momentum=0.1, affine=True, track_running_stats=True)
          (drop_block): Identity()
          (act2): ReLU(inplace=True)
          (aa): Identity()
          (conv3): Conv2d(256, 1024, kernel_size=(1, 1), stride=(1, 1), bias=False)
          (bn3): BatchNorm2d(1024, eps=1e-05, momentum=0.1, affine=True, track_running_stats=True)
          (se): SEModule(
            (fc1): Conv2d(1024, 64, kernel_size=(1, 1), stride=(1, 1))
            (bn): Identity()
            (act): ReLU(inplace=True)
            (fc2): Conv2d(64, 1024, kernel_size=(1, 1), stride=(1, 1))
            (gate): Sigmoid()
          )
          (act3): ReLU(inplace=True)
        )
        (14): Bottleneck(
          (conv1): Conv2d(1024, 256, kernel_size=(1, 1), stride=(1, 1), bias=False)
          (bn1): BatchNorm2d(256, eps=1e-05, momentum=0.1, affine=True, track_running_stats=True)
          (act1): ReLU(inplace=True)
          (conv2): Conv2d(256, 256, kernel_size=(3, 3), stride=(1, 1), padding=(1, 1), bias=False)
          (bn2): BatchNorm2d(256, eps=1e-05, momentum=0.1, affine=True, track_running_stats=True)
          (drop_block): Identity()
          (act2): ReLU(inplace=True)
          (aa): Identity()
          (conv3): Conv2d(256, 1024, kernel_size=(1, 1), stride=(1, 1), bias=False)
          (bn3): BatchNorm2d(1024, eps=1e-05, momentum=0.1, affine=True, track_running_stats=True)
          (se): SEModule(
            (fc1): Conv2d(1024, 64, kernel_size=(1, 1), stride=(1, 1))
            (bn): Identity()
            (act): ReLU(inplace=True)
            (fc2): Conv2d(64, 1024, kernel_size=(1, 1), stride=(1, 1))
            (gate): Sigmoid()
          )
          (act3): ReLU(inplace=True)
        )
        (15): Bottleneck(
          (conv1): Conv2d(1024, 256, kernel_size=(1, 1), stride=(1, 1), bias=False)
          (bn1): BatchNorm2d(256, eps=1e-05, momentum=0.1, affine=True, track_running_stats=True)
          (act1): ReLU(inplace=True)
          (conv2): Conv2d(256, 256, kernel_size=(3, 3), stride=(1, 1), padding=(1, 1), bias=False)
          (bn2): BatchNorm2d(256, eps=1e-05, momentum=0.1, affine=True, track_running_stats=True)
          (drop_block): Identity()
          (act2): ReLU(inplace=True)
          (aa): Identity()
          (conv3): Conv2d(256, 1024, kernel_size=(1, 1), stride=(1, 1), bias=False)
          (bn3): BatchNorm2d(1024, eps=1e-05, momentum=0.1, affine=True, track_running_stats=True)
          (se): SEModule(
            (fc1): Conv2d(1024, 64, kernel_size=(1, 1), stride=(1, 1))
            (bn): Identity()
            (act): ReLU(inplace=True)
            (fc2): Conv2d(64, 1024, kernel_size=(1, 1), stride=(1, 1))
            (gate): Sigmoid()
          )
          (act3): ReLU(inplace=True)
        )
        (16): Bottleneck(
          (conv1): Conv2d(1024, 256, kernel_size=(1, 1), stride=(1, 1), bias=False)
          (bn1): BatchNorm2d(256, eps=1e-05, momentum=0.1, affine=True, track_running_stats=True)
          (act1): ReLU(inplace=True)
          (conv2): Conv2d(256, 256, kernel_size=(3, 3), stride=(1, 1), padding=(1, 1), bias=False)
          (bn2): BatchNorm2d(256, eps=1e-05, momentum=0.1, affine=True, track_running_stats=True)
          (drop_block): Identity()
          (act2): ReLU(inplace=True)
          (aa): Identity()
          (conv3): Conv2d(256, 1024, kernel_size=(1, 1), stride=(1, 1), bias=False)
          (bn3): BatchNorm2d(1024, eps=1e-05, momentum=0.1, affine=True, track_running_stats=True)
          (se): SEModule(
            (fc1): Conv2d(1024, 64, kernel_size=(1, 1), stride=(1, 1))
            (bn): Identity()
            (act): ReLU(inplace=True)
            (fc2): Conv2d(64, 1024, kernel_size=(1, 1), stride=(1, 1))
            (gate): Sigmoid()
          )
          (act3): ReLU(inplace=True)
        )
        (17): Bottleneck(
          (conv1): Conv2d(1024, 256, kernel_size=(1, 1), stride=(1, 1), bias=False)
          (bn1): BatchNorm2d(256, eps=1e-05, momentum=0.1, affine=True, track_running_stats=True)
          (act1): ReLU(inplace=True)
          (conv2): Conv2d(256, 256, kernel_size=(3, 3), stride=(1, 1), padding=(1, 1), bias=False)
          (bn2): BatchNorm2d(256, eps=1e-05, momentum=0.1, affine=True, track_running_stats=True)
          (drop_block): Identity()
          (act2): ReLU(inplace=True)
          (aa): Identity()
          (conv3): Conv2d(256, 1024, kernel_size=(1, 1), stride=(1, 1), bias=False)
          (bn3): BatchNorm2d(1024, eps=1e-05, momentum=0.1, affine=True, track_running_stats=True)
          (se): SEModule(
            (fc1): Conv2d(1024, 64, kernel_size=(1, 1), stride=(1, 1))
            (bn): Identity()
            (act): ReLU(inplace=True)
            (fc2): Conv2d(64, 1024, kernel_size=(1, 1), stride=(1, 1))
            (gate): Sigmoid()
          )
          (act3): ReLU(inplace=True)
        )
        (18): Bottleneck(
          (conv1): Conv2d(1024, 256, kernel_size=(1, 1), stride=(1, 1), bias=False)
          (bn1): BatchNorm2d(256, eps=1e-05, momentum=0.1, affine=True, track_running_stats=True)
          (act1): ReLU(inplace=True)
          (conv2): Conv2d(256, 256, kernel_size=(3, 3), stride=(1, 1), padding=(1, 1), bias=False)
          (bn2): BatchNorm2d(256, eps=1e-05, momentum=0.1, affine=True, track_running_stats=True)
          (drop_block): Identity()
          (act2): ReLU(inplace=True)
          (aa): Identity()
          (conv3): Conv2d(256, 1024, kernel_size=(1, 1), stride=(1, 1), bias=False)
          (bn3): BatchNorm2d(1024, eps=1e-05, momentum=0.1, affine=True, track_running_stats=True)
          (se): SEModule(
            (fc1): Conv2d(1024, 64, kernel_size=(1, 1), stride=(1, 1))
            (bn): Identity()
            (act): ReLU(inplace=True)
            (fc2): Conv2d(64, 1024, kernel_size=(1, 1), stride=(1, 1))
            (gate): Sigmoid()
          )
          (act3): ReLU(inplace=True)
        )
        (19): Bottleneck(
          (conv1): Conv2d(1024, 256, kernel_size=(1, 1), stride=(1, 1), bias=False)
          (bn1): BatchNorm2d(256, eps=1e-05, momentum=0.1, affine=True, track_running_stats=True)
          (act1): ReLU(inplace=True)
          (conv2): Conv2d(256, 256, kernel_size=(3, 3), stride=(1, 1), padding=(1, 1), bias=False)
          (bn2): BatchNorm2d(256, eps=1e-05, momentum=0.1, affine=True, track_running_stats=True)
          (drop_block): Identity()
          (act2): ReLU(inplace=True)
          (aa): Identity()
          (conv3): Conv2d(256, 1024, kernel_size=(1, 1), stride=(1, 1), bias=False)
          (bn3): BatchNorm2d(1024, eps=1e-05, momentum=0.1, affine=True, track_running_stats=True)
          (se): SEModule(
            (fc1): Conv2d(1024, 64, kernel_size=(1, 1), stride=(1, 1))
            (bn): Identity()
            (act): ReLU(inplace=True)
            (fc2): Conv2d(64, 1024, kernel_size=(1, 1), stride=(1, 1))
            (gate): Sigmoid()
          )
          (act3): ReLU(inplace=True)
        )
        (20): Bottleneck(
          (conv1): Conv2d(1024, 256, kernel_size=(1, 1), stride=(1, 1), bias=False)
          (bn1): BatchNorm2d(256, eps=1e-05, momentum=0.1, affine=True, track_running_stats=True)
          (act1): ReLU(inplace=True)
          (conv2): Conv2d(256, 256, kernel_size=(3, 3), stride=(1, 1), padding=(1, 1), bias=False)
          (bn2): BatchNorm2d(256, eps=1e-05, momentum=0.1, affine=True, track_running_stats=True)
          (drop_block): Identity()
          (act2): ReLU(inplace=True)
          (aa): Identity()
          (conv3): Conv2d(256, 1024, kernel_size=(1, 1), stride=(1, 1), bias=False)
          (bn3): BatchNorm2d(1024, eps=1e-05, momentum=0.1, affine=True, track_running_stats=True)
          (se): SEModule(
            (fc1): Conv2d(1024, 64, kernel_size=(1, 1), stride=(1, 1))
            (bn): Identity()
            (act): ReLU(inplace=True)
            (fc2): Conv2d(64, 1024, kernel_size=(1, 1), stride=(1, 1))
            (gate): Sigmoid()
          )
          (act3): ReLU(inplace=True)
        )
        (21): Bottleneck(
          (conv1): Conv2d(1024, 256, kernel_size=(1, 1), stride=(1, 1), bias=False)
          (bn1): BatchNorm2d(256, eps=1e-05, momentum=0.1, affine=True, track_running_stats=True)
          (act1): ReLU(inplace=True)
          (conv2): Conv2d(256, 256, kernel_size=(3, 3), stride=(1, 1), padding=(1, 1), bias=False)
          (bn2): BatchNorm2d(256, eps=1e-05, momentum=0.1, affine=True, track_running_stats=True)
          (drop_block): Identity()
          (act2): ReLU(inplace=True)
          (aa): Identity()
          (conv3): Conv2d(256, 1024, kernel_size=(1, 1), stride=(1, 1), bias=False)
          (bn3): BatchNorm2d(1024, eps=1e-05, momentum=0.1, affine=True, track_running_stats=True)
          (se): SEModule(
            (fc1): Conv2d(1024, 64, kernel_size=(1, 1), stride=(1, 1))
            (bn): Identity()
            (act): ReLU(inplace=True)
            (fc2): Conv2d(64, 1024, kernel_size=(1, 1), stride=(1, 1))
            (gate): Sigmoid()
          )
          (act3): ReLU(inplace=True)
        )
        (22): Bottleneck(
          (conv1): Conv2d(1024, 256, kernel_size=(1, 1), stride=(1, 1), bias=False)
          (bn1): BatchNorm2d(256, eps=1e-05, momentum=0.1, affine=True, track_running_stats=True)
          (act1): ReLU(inplace=True)
          (conv2): Conv2d(256, 256, kernel_size=(3, 3), stride=(1, 1), padding=(1, 1), bias=False)
          (bn2): BatchNorm2d(256, eps=1e-05, momentum=0.1, affine=True, track_running_stats=True)
          (drop_block): Identity()
          (act2): ReLU(inplace=True)
          (aa): Identity()
          (conv3): Conv2d(256, 1024, kernel_size=(1, 1), stride=(1, 1), bias=False)
          (bn3): BatchNorm2d(1024, eps=1e-05, momentum=0.1, affine=True, track_running_stats=True)
          (se): SEModule(
            (fc1): Conv2d(1024, 64, kernel_size=(1, 1), stride=(1, 1))
            (bn): Identity()
            (act): ReLU(inplace=True)
            (fc2): Conv2d(64, 1024, kernel_size=(1, 1), stride=(1, 1))
            (gate): Sigmoid()
          )
          (act3): ReLU(inplace=True)
        )
        (23): Bottleneck(
          (conv1): Conv2d(1024, 256, kernel_size=(1, 1), stride=(1, 1), bias=False)
          (bn1): BatchNorm2d(256, eps=1e-05, momentum=0.1, affine=True, track_running_stats=True)
          (act1): ReLU(inplace=True)
          (conv2): Conv2d(256, 256, kernel_size=(3, 3), stride=(1, 1), padding=(1, 1), bias=False)
          (bn2): BatchNorm2d(256, eps=1e-05, momentum=0.1, affine=True, track_running_stats=True)
          (drop_block): Identity()
          (act2): ReLU(inplace=True)
          (aa): Identity()
          (conv3): Conv2d(256, 1024, kernel_size=(1, 1), stride=(1, 1), bias=False)
          (bn3): BatchNorm2d(1024, eps=1e-05, momentum=0.1, affine=True, track_running_stats=True)
          (se): SEModule(
            (fc1): Conv2d(1024, 64, kernel_size=(1, 1), stride=(1, 1))
            (bn): Identity()
            (act): ReLU(inplace=True)
            (fc2): Conv2d(64, 1024, kernel_size=(1, 1), stride=(1, 1))
            (gate): Sigmoid()
          )
          (act3): ReLU(inplace=True)
        )
        (24): Bottleneck(
          (conv1): Conv2d(1024, 256, kernel_size=(1, 1), stride=(1, 1), bias=False)
          (bn1): BatchNorm2d(256, eps=1e-05, momentum=0.1, affine=True, track_running_stats=True)
          (act1): ReLU(inplace=True)
          (conv2): Conv2d(256, 256, kernel_size=(3, 3), stride=(1, 1), padding=(1, 1), bias=False)
          (bn2): BatchNorm2d(256, eps=1e-05, momentum=0.1, affine=True, track_running_stats=True)
          (drop_block): Identity()
          (act2): ReLU(inplace=True)
          (aa): Identity()
          (conv3): Conv2d(256, 1024, kernel_size=(1, 1), stride=(1, 1), bias=False)
          (bn3): BatchNorm2d(1024, eps=1e-05, momentum=0.1, affine=True, track_running_stats=True)
          (se): SEModule(
            (fc1): Conv2d(1024, 64, kernel_size=(1, 1), stride=(1, 1))
            (bn): Identity()
            (act): ReLU(inplace=True)
            (fc2): Conv2d(64, 1024, kernel_size=(1, 1), stride=(1, 1))
            (gate): Sigmoid()
          )
          (act3): ReLU(inplace=True)
        )
        (25): Bottleneck(
          (conv1): Conv2d(1024, 256, kernel_size=(1, 1), stride=(1, 1), bias=False)
          (bn1): BatchNorm2d(256, eps=1e-05, momentum=0.1, affine=True, track_running_stats=True)
          (act1): ReLU(inplace=True)
          (conv2): Conv2d(256, 256, kernel_size=(3, 3), stride=(1, 1), padding=(1, 1), bias=False)
          (bn2): BatchNorm2d(256, eps=1e-05, momentum=0.1, affine=True, track_running_stats=True)
          (drop_block): Identity()
          (act2): ReLU(inplace=True)
          (aa): Identity()
          (conv3): Conv2d(256, 1024, kernel_size=(1, 1), stride=(1, 1), bias=False)
          (bn3): BatchNorm2d(1024, eps=1e-05, momentum=0.1, affine=True, track_running_stats=True)
          (se): SEModule(
            (fc1): Conv2d(1024, 64, kernel_size=(1, 1), stride=(1, 1))
            (bn): Identity()
            (act): ReLU(inplace=True)
            (fc2): Conv2d(64, 1024, kernel_size=(1, 1), stride=(1, 1))
            (gate): Sigmoid()
          )
          (act3): ReLU(inplace=True)
        )
        (26): Bottleneck(
          (conv1): Conv2d(1024, 256, kernel_size=(1, 1), stride=(1, 1), bias=False)
          (bn1): BatchNorm2d(256, eps=1e-05, momentum=0.1, affine=True, track_running_stats=True)
          (act1): ReLU(inplace=True)
          (conv2): Conv2d(256, 256, kernel_size=(3, 3), stride=(1, 1), padding=(1, 1), bias=False)
          (bn2): BatchNorm2d(256, eps=1e-05, momentum=0.1, affine=True, track_running_stats=True)
          (drop_block): Identity()
          (act2): ReLU(inplace=True)
          (aa): Identity()
          (conv3): Conv2d(256, 1024, kernel_size=(1, 1), stride=(1, 1), bias=False)
          (bn3): BatchNorm2d(1024, eps=1e-05, momentum=0.1, affine=True, track_running_stats=True)
          (se): SEModule(
            (fc1): Conv2d(1024, 64, kernel_size=(1, 1), stride=(1, 1))
            (bn): Identity()
            (act): ReLU(inplace=True)
            (fc2): Conv2d(64, 1024, kernel_size=(1, 1), stride=(1, 1))
            (gate): Sigmoid()
          )
          (act3): ReLU(inplace=True)
        )
        (27): Bottleneck(
          (conv1): Conv2d(1024, 256, kernel_size=(1, 1), stride=(1, 1), bias=False)
          (bn1): BatchNorm2d(256, eps=1e-05, momentum=0.1, affine=True, track_running_stats=True)
          (act1): ReLU(inplace=True)
          (conv2): Conv2d(256, 256, kernel_size=(3, 3), stride=(1, 1), padding=(1, 1), bias=False)
          (bn2): BatchNorm2d(256, eps=1e-05, momentum=0.1, affine=True, track_running_stats=True)
          (drop_block): Identity()
          (act2): ReLU(inplace=True)
          (aa): Identity()
          (conv3): Conv2d(256, 1024, kernel_size=(1, 1), stride=(1, 1), bias=False)
          (bn3): BatchNorm2d(1024, eps=1e-05, momentum=0.1, affine=True, track_running_stats=True)
          (se): SEModule(
            (fc1): Conv2d(1024, 64, kernel_size=(1, 1), stride=(1, 1))
            (bn): Identity()
            (act): ReLU(inplace=True)
            (fc2): Conv2d(64, 1024, kernel_size=(1, 1), stride=(1, 1))
            (gate): Sigmoid()
          )
          (act3): ReLU(inplace=True)
        )
        (28): Bottleneck(
          (conv1): Conv2d(1024, 256, kernel_size=(1, 1), stride=(1, 1), bias=False)
          (bn1): BatchNorm2d(256, eps=1e-05, momentum=0.1, affine=True, track_running_stats=True)
          (act1): ReLU(inplace=True)
          (conv2): Conv2d(256, 256, kernel_size=(3, 3), stride=(1, 1), padding=(1, 1), bias=False)
          (bn2): BatchNorm2d(256, eps=1e-05, momentum=0.1, affine=True, track_running_stats=True)
          (drop_block): Identity()
          (act2): ReLU(inplace=True)
          (aa): Identity()
          (conv3): Conv2d(256, 1024, kernel_size=(1, 1), stride=(1, 1), bias=False)
          (bn3): BatchNorm2d(1024, eps=1e-05, momentum=0.1, affine=True, track_running_stats=True)
          (se): SEModule(
            (fc1): Conv2d(1024, 64, kernel_size=(1, 1), stride=(1, 1))
            (bn): Identity()
            (act): ReLU(inplace=True)
            (fc2): Conv2d(64, 1024, kernel_size=(1, 1), stride=(1, 1))
            (gate): Sigmoid()
          )
          (act3): ReLU(inplace=True)
        )
        (29): Bottleneck(
          (conv1): Conv2d(1024, 256, kernel_size=(1, 1), stride=(1, 1), bias=False)
          (bn1): BatchNorm2d(256, eps=1e-05, momentum=0.1, affine=True, track_running_stats=True)
          (act1): ReLU(inplace=True)
          (conv2): Conv2d(256, 256, kernel_size=(3, 3), stride=(1, 1), padding=(1, 1), bias=False)
          (bn2): BatchNorm2d(256, eps=1e-05, momentum=0.1, affine=True, track_running_stats=True)
          (drop_block): Identity()
          (act2): ReLU(inplace=True)
          (aa): Identity()
          (conv3): Conv2d(256, 1024, kernel_size=(1, 1), stride=(1, 1), bias=False)
          (bn3): BatchNorm2d(1024, eps=1e-05, momentum=0.1, affine=True, track_running_stats=True)
          (se): SEModule(
            (fc1): Conv2d(1024, 64, kernel_size=(1, 1), stride=(1, 1))
            (bn): Identity()
            (act): ReLU(inplace=True)
            (fc2): Conv2d(64, 1024, kernel_size=(1, 1), stride=(1, 1))
            (gate): Sigmoid()
          )
          (act3): ReLU(inplace=True)
        )
        (30): Bottleneck(
          (conv1): Conv2d(1024, 256, kernel_size=(1, 1), stride=(1, 1), bias=False)
          (bn1): BatchNorm2d(256, eps=1e-05, momentum=0.1, affine=True, track_running_stats=True)
          (act1): ReLU(inplace=True)
          (conv2): Conv2d(256, 256, kernel_size=(3, 3), stride=(1, 1), padding=(1, 1), bias=False)
          (bn2): BatchNorm2d(256, eps=1e-05, momentum=0.1, affine=True, track_running_stats=True)
          (drop_block): Identity()
          (act2): ReLU(inplace=True)
          (aa): Identity()
          (conv3): Conv2d(256, 1024, kernel_size=(1, 1), stride=(1, 1), bias=False)
          (bn3): BatchNorm2d(1024, eps=1e-05, momentum=0.1, affine=True, track_running_stats=True)
          (se): SEModule(
            (fc1): Conv2d(1024, 64, kernel_size=(1, 1), stride=(1, 1))
            (bn): Identity()
            (act): ReLU(inplace=True)
            (fc2): Conv2d(64, 1024, kernel_size=(1, 1), stride=(1, 1))
            (gate): Sigmoid()
          )
          (act3): ReLU(inplace=True)
        )
        (31): Bottleneck(
          (conv1): Conv2d(1024, 256, kernel_size=(1, 1), stride=(1, 1), bias=False)
          (bn1): BatchNorm2d(256, eps=1e-05, momentum=0.1, affine=True, track_running_stats=True)
          (act1): ReLU(inplace=True)
          (conv2): Conv2d(256, 256, kernel_size=(3, 3), stride=(1, 1), padding=(1, 1), bias=False)
          (bn2): BatchNorm2d(256, eps=1e-05, momentum=0.1, affine=True, track_running_stats=True)
          (drop_block): Identity()
          (act2): ReLU(inplace=True)
          (aa): Identity()
          (conv3): Conv2d(256, 1024, kernel_size=(1, 1), stride=(1, 1), bias=False)
          (bn3): BatchNorm2d(1024, eps=1e-05, momentum=0.1, affine=True, track_running_stats=True)
          (se): SEModule(
            (fc1): Conv2d(1024, 64, kernel_size=(1, 1), stride=(1, 1))
            (bn): Identity()
            (act): ReLU(inplace=True)
            (fc2): Conv2d(64, 1024, kernel_size=(1, 1), stride=(1, 1))
            (gate): Sigmoid()
          )
          (act3): ReLU(inplace=True)
        )
        (32): Bottleneck(
          (conv1): Conv2d(1024, 256, kernel_size=(1, 1), stride=(1, 1), bias=False)
          (bn1): BatchNorm2d(256, eps=1e-05, momentum=0.1, affine=True, track_running_stats=True)
          (act1): ReLU(inplace=True)
          (conv2): Conv2d(256, 256, kernel_size=(3, 3), stride=(1, 1), padding=(1, 1), bias=False)
          (bn2): BatchNorm2d(256, eps=1e-05, momentum=0.1, affine=True, track_running_stats=True)
          (drop_block): Identity()
          (act2): ReLU(inplace=True)
          (aa): Identity()
          (conv3): Conv2d(256, 1024, kernel_size=(1, 1), stride=(1, 1), bias=False)
          (bn3): BatchNorm2d(1024, eps=1e-05, momentum=0.1, affine=True, track_running_stats=True)
          (se): SEModule(
            (fc1): Conv2d(1024, 64, kernel_size=(1, 1), stride=(1, 1))
            (bn): Identity()
            (act): ReLU(inplace=True)
            (fc2): Conv2d(64, 1024, kernel_size=(1, 1), stride=(1, 1))
            (gate): Sigmoid()
          )
          (act3): ReLU(inplace=True)
        )
        (33): Bottleneck(
          (conv1): Conv2d(1024, 256, kernel_size=(1, 1), stride=(1, 1), bias=False)
          (bn1): BatchNorm2d(256, eps=1e-05, momentum=0.1, affine=True, track_running_stats=True)
          (act1): ReLU(inplace=True)
          (conv2): Conv2d(256, 256, kernel_size=(3, 3), stride=(1, 1), padding=(1, 1), bias=False)
          (bn2): BatchNorm2d(256, eps=1e-05, momentum=0.1, affine=True, track_running_stats=True)
          (drop_block): Identity()
          (act2): ReLU(inplace=True)
          (aa): Identity()
          (conv3): Conv2d(256, 1024, kernel_size=(1, 1), stride=(1, 1), bias=False)
          (bn3): BatchNorm2d(1024, eps=1e-05, momentum=0.1, affine=True, track_running_stats=True)
          (se): SEModule(
            (fc1): Conv2d(1024, 64, kernel_size=(1, 1), stride=(1, 1))
            (bn): Identity()
            (act): ReLU(inplace=True)
            (fc2): Conv2d(64, 1024, kernel_size=(1, 1), stride=(1, 1))
            (gate): Sigmoid()
          )
          (act3): ReLU(inplace=True)
        )
        (34): Bottleneck(
          (conv1): Conv2d(1024, 256, kernel_size=(1, 1), stride=(1, 1), bias=False)
          (bn1): BatchNorm2d(256, eps=1e-05, momentum=0.1, affine=True, track_running_stats=True)
          (act1): ReLU(inplace=True)
          (conv2): Conv2d(256, 256, kernel_size=(3, 3), stride=(1, 1), padding=(1, 1), bias=False)
          (bn2): BatchNorm2d(256, eps=1e-05, momentum=0.1, affine=True, track_running_stats=True)
          (drop_block): Identity()
          (act2): ReLU(inplace=True)
          (aa): Identity()
          (conv3): Conv2d(256, 1024, kernel_size=(1, 1), stride=(1, 1), bias=False)
          (bn3): BatchNorm2d(1024, eps=1e-05, momentum=0.1, affine=True, track_running_stats=True)
          (se): SEModule(
            (fc1): Conv2d(1024, 64, kernel_size=(1, 1), stride=(1, 1))
            (bn): Identity()
            (act): ReLU(inplace=True)
            (fc2): Conv2d(64, 1024, kernel_size=(1, 1), stride=(1, 1))
            (gate): Sigmoid()
          )
          (act3): ReLU(inplace=True)
        )
        (35): Bottleneck(
          (conv1): Conv2d(1024, 256, kernel_size=(1, 1), stride=(1, 1), bias=False)
          (bn1): BatchNorm2d(256, eps=1e-05, momentum=0.1, affine=True, track_running_stats=True)
          (act1): ReLU(inplace=True)
          (conv2): Conv2d(256, 256, kernel_size=(3, 3), stride=(1, 1), padding=(1, 1), bias=False)
          (bn2): BatchNorm2d(256, eps=1e-05, momentum=0.1, affine=True, track_running_stats=True)
          (drop_block): Identity()
          (act2): ReLU(inplace=True)
          (aa): Identity()
          (conv3): Conv2d(256, 1024, kernel_size=(1, 1), stride=(1, 1), bias=False)
          (bn3): BatchNorm2d(1024, eps=1e-05, momentum=0.1, affine=True, track_running_stats=True)
          (se): SEModule(
            (fc1): Conv2d(1024, 64, kernel_size=(1, 1), stride=(1, 1))
            (bn): Identity()
            (act): ReLU(inplace=True)
            (fc2): Conv2d(64, 1024, kernel_size=(1, 1), stride=(1, 1))
            (gate): Sigmoid()
          )
          (act3): ReLU(inplace=True)
        )
      )
      (4): Sequential(
        (0): Bottleneck(
          (conv1): Conv2d(1024, 512, kernel_size=(1, 1), stride=(1, 1), bias=False)
          (bn1): BatchNorm2d(512, eps=1e-05, momentum=0.1, affine=True, track_running_stats=True)
          (act1): ReLU(inplace=True)
          (conv2): Conv2d(512, 512, kernel_size=(3, 3), stride=(2, 2), padding=(1, 1), bias=False)
          (bn2): BatchNorm2d(512, eps=1e-05, momentum=0.1, affine=True, track_running_stats=True)
          (drop_block): Identity()
          (act2): ReLU(inplace=True)
          (aa): Identity()
          (conv3): Conv2d(512, 2048, kernel_size=(1, 1), stride=(1, 1), bias=False)
          (bn3): BatchNorm2d(2048, eps=1e-05, momentum=0.1, affine=True, track_running_stats=True)
          (se): SEModule(
            (fc1): Conv2d(2048, 128, kernel_size=(1, 1), stride=(1, 1))
            (bn): Identity()
            (act): ReLU(inplace=True)
            (fc2): Conv2d(128, 2048, kernel_size=(1, 1), stride=(1, 1))
            (gate): Sigmoid()
          )
          (act3): ReLU(inplace=True)
          (downsample): Sequential(
            (0): AvgPool2d(kernel_size=2, stride=2, padding=0)
            (1): Conv2d(1024, 2048, kernel_size=(1, 1), stride=(1, 1), bias=False)
            (2): BatchNorm2d(2048, eps=1e-05, momentum=0.1, affine=True, track_running_stats=True)
          )
        )
        (1): Bottleneck(
          (conv1): Conv2d(2048, 512, kernel_size=(1, 1), stride=(1, 1), bias=False)
          (bn1): BatchNorm2d(512, eps=1e-05, momentum=0.1, affine=True, track_running_stats=True)
          (act1): ReLU(inplace=True)
          (conv2): Conv2d(512, 512, kernel_size=(3, 3), stride=(1, 1), padding=(1, 1), bias=False)
          (bn2): BatchNorm2d(512, eps=1e-05, momentum=0.1, affine=True, track_running_stats=True)
          (drop_block): Identity()
          (act2): ReLU(inplace=True)
          (aa): Identity()
          (conv3): Conv2d(512, 2048, kernel_size=(1, 1), stride=(1, 1), bias=False)
          (bn3): BatchNorm2d(2048, eps=1e-05, momentum=0.1, affine=True, track_running_stats=True)
          (se): SEModule(
            (fc1): Conv2d(2048, 128, kernel_size=(1, 1), stride=(1, 1))
            (bn): Identity()
            (act): ReLU(inplace=True)
            (fc2): Conv2d(128, 2048, kernel_size=(1, 1), stride=(1, 1))
            (gate): Sigmoid()
          )
          (act3): ReLU(inplace=True)
        )
        (2): Bottleneck(
          (conv1): Conv2d(2048, 512, kernel_size=(1, 1), stride=(1, 1), bias=False)
          (bn1): BatchNorm2d(512, eps=1e-05, momentum=0.1, affine=True, track_running_stats=True)
          (act1): ReLU(inplace=True)
          (conv2): Conv2d(512, 512, kernel_size=(3, 3), stride=(1, 1), padding=(1, 1), bias=False)
          (bn2): BatchNorm2d(512, eps=1e-05, momentum=0.1, affine=True, track_running_stats=True)
          (drop_block): Identity()
          (act2): ReLU(inplace=True)
          (aa): Identity()
          (conv3): Conv2d(512, 2048, kernel_size=(1, 1), stride=(1, 1), bias=False)
          (bn3): BatchNorm2d(2048, eps=1e-05, momentum=0.1, affine=True, track_running_stats=True)
          (se): SEModule(
            (fc1): Conv2d(2048, 128, kernel_size=(1, 1), stride=(1, 1))
            (bn): Identity()
            (act): ReLU(inplace=True)
            (fc2): Conv2d(128, 2048, kernel_size=(1, 1), stride=(1, 1))
            (gate): Sigmoid()
          )
          (act3): ReLU(inplace=True)
        )
      )
    )
    (final): Sequential(
      (0): AdaptiveAvgPool2d(output_size=(1, 1))
      (1): Flatten(start_dim=1, end_dim=-1)
    )
    (last): Identity()
  )
)
[I][2025-01-30 09:16:29][GLOBAL]load time 3.5279273986816406 s
[I][2025-01-30 09:16:35][GLOBAL]epoch  0 valid mean acc 0.912800
…
